model/keypoint_classifier/keypoint_classifier.tflite (tflite, 6808 bytes, 6 tensors)

sequential/dense/BiasAdd/ReadVariableOp f4 [20]
-0.24563426 0.26248652 0.15589143 0.19862068 0.23836136 -0.14731263 0.36337197 -0.49147817
-0.035573013 0.08150576 0.20964453 -0.31148103 0.08306396 0.020792894 0.03408829 -0.6499368
-0.533246 -0.026441954 -0.6100124 0.48211512
00000000: 8c87 7bbe a264 863e 01a2 1f3e 3863 4b3e
00000010: 0015 743e 1fd9 16be e40b ba3e 07a3 fbbe
00000020: 02b5 11bd 7eec a63d 0ead 563e 717a 9fbe
00000030: 701d aa3d dc55 aa3c 2aa0 0b3d 4262 26bf
00000040: cf82 08bf cc9c d8bc c629 1cbf cbd7 f63e

sequential/dense_2/BiasAdd/ReadVariableOp f4 [10]
-1.1132942 -0.31537214 1.297718 0.051125057 -0.9093382 0.2297787 0.38945517 -0.023358168
-0.37359515 0.12590176
00000000: 6d80 8ebf 7578 a1be a01b a63f 8268 513d
00000010: 63ca 68bf 1c4b 6b3e ab66 c73e a159 bfbc
00000020: dd47 bfbe 64ec 003e

sequential/dense_1/BiasAdd/ReadVariableOp f4 [10]
-0.033802982 -0.28322932 -0.81140447 0.03819882 -0.16425753 0.5250715 0.9520005 0.2977808
1.2152629 -1.3952985
00000000: ff74 0abd 6f03 91be 34b8 4fbf 5e76 1c3d
00000010: 2033 28be 166b 063f 4eb6 733f ba76 983e
00000020: bc8d 9b3f 2499 b2bf

sequential/dense/MatMul f4 [20, 42]
-0.21126983 -0.2634894 0.14241418 0.15428448 -0.050650373 0.16001306 0.2555932 0.11909619
0.17179558 -0.024059193 0.12282962 0.28259224 -0.04703917 0.051308643 0.12771446 0.32046118
0.119943276 0.19697665 0.14296532 0.4320692 -0.0861551 0.07339472 -0.01410197 -0.10936783
0.17651075 0.22607264 0.18624045 0.42376566 0.11488312 0.27964988 0.14265466 0.11436127
0.16907638 -0.13885392 0.1137676 -0.08667718 0.06846145 -0.026448375 0.10966922 0.23049887
-0.07333247 0.083402015 -0.07912147 0.21805161 0.69085264 1.3228809 0.4229204 0.9228665
0.010154809 0.62656295 0.0026517722 0.7897894 -0.2761787 0.052633226 -0.1539856 0.33683497
-0.009940104 0.06916698 -0.03368481 -0.19832687 -0.5077922 -0.30374706 -0.09746442 0.546781
0.22667821 -0.13882087 0.3984442 -0.68140364 -0.68540144 -0.34393016 -0.1548461 0.563103
0.32571602 0.06754633 0.48121327 -0.55390376 -0.7301461 -0.09676353 -0.34468827 0.42711762
0.016769584 0.03561385 0.39597988 -0.48925596 -0.03856224 0.28264427 -0.14353588 -0.47183633
0.13486342 -0.031526506 -0.023582703 -0.240211 0.25668392 0.06530647 0.22473142 -0.17677957
0.19822337 -0.043913968 0.12422225 -0.22874354 0.28862286 -0.19306464 0.3473545 -0.17441916
0.512008 -0.07635618 0.799213 -0.103714734 0.5827298 -0.037531987 0.38008463 -0.08801531
0.4123479 -0.24435668 0.82740957 0.042559993 0.9068911 -0.04587833 0.88914573 -0.023146238
0.77565145 -0.15282556 0.82094914 -0.18400972 0.6462947 -0.1937639 0.15425298 -0.2597519
-0.8721888 0.28264135 -0.39583933 0.50499946 -0.10271904 0.30898523 0.08991738 0.272354
0.08209757 -0.4310558 0.033950582 -0.64667267 -0.10673304 -0.6971961 -0.19911557 -0.5270499
0.1201997 -0.6848795 0.032075137 -0.99577737 -0.28065073 -0.21617146 -0.40028912 0.20041063
0.20776044 -0.7900692 0.069797896 -0.5218739 -0.13291577 -0.18985108 -0.2692308 -0.0099134995
0.20258471 -0.45756474 0.16954985 -0.5452377 -0.116507605 -0.34554407 -0.12968662 0.05055249
0.14976057 -0.27362445 0.22658679 -0.19958875 0.03148789 -0.089454785 0.2816219 0.0062486655
0.10916463 -0.19502707 0.2291053 -0.057005264 0.4770114 0.012740646 0.5911044 -0.102076285
0.28060108 -0.0748726 0.2211658 -0.20850153 0.45567656 -0.121931165 0.7019121 -0.117879994
0.5427047 -0.08350993 0.50371426 -0.11175998 0.7892722 -0.15853593 0.7165692 -0.27154562
0.6107897 -0.103745766 0.9649722 -0.018676696 1.0195761 -0.040322937 0.801264 -0.2916803
0.7913848 -0.2214862 0.30464733 -0.19412585 -0.33180088 -0.82251436 -0.12592256 -0.36549562
-0.06064281 -0.25916523 -0.20257941 0.007887496 -0.08551295 0.2432306 -0.046863575 0.21864276
-0.033195883 0.2550705 -0.10195217 0.55156267 -0.09741735 0.445358 -0.16561249 0.3521208
-0.40950158 0.5661796 -0.51565397 0.70907927 0.1323365 0.50528306 -0.059321746 0.35141277
-0.55940676 0.5159105 -0.8525458 0.87090486 0.041215092 0.8062853 0.019444598 0.88144594
-0.21687958 0.79393786 -0.39641893 0.9567031 0.001608789 0.12724477 -0.5005995 0.39796776
00000000: 1e57 58be 15e8 86be 06d5 113e c0fc 1d3e
00000010: c476 4fbd 77da 233e 1ddd 823e b4e8 f33d
00000020: 2eeb 2f3e c917 c5bc 198e fb3d eeaf 903e
00000030: 25ac 40bd 0329 523d 94c7 023e 7d13 a43e
00000040: d2a4 f53d 3fb4 493e 8065 123e 2d38 dd3e
00000050: 1672 b0bd f94f 963d f30b 67bc 3efc dfbd
00000060: 3cbf 343e 967f 673e d1b5 3e3e d0f7 d83e
00000070: d747 eb3d 452e 8f3e 1014 123e 3e36 ea3d
00000080: 5c22 2d3e b92f 0ebe fdfe e83d ce83 b1bd
00000090: 8435 8c3d 43aa d8bc 429a e03d e507 6c3e
000000a0: 562f 96bd adce aa3d 700a a2bd ec48 5f3e
000000b0: b8db 303f 2954 a93f 0689 d83e fb40 6c3f
000000c0: 5b60 263c 6e66 203f 5bc9 2d3b a32f 4a3f
000000d0: 4b67 8dbe f095 573d 67ae 1dbe a275 ac3e
000000e0: d1db 22bc 6ba7 8d3d 15f9 09bd 3316 4bbe
000000f0: abfe 01bf bc84 9bbe 6d9b c7bd d7f9 0b3f
00000100: 551e 683e 0f27 0ebe e100 cc3e 7870 2ebf
00000110: 7876 2fbf 9d17 b0be fa8f 1ebe 8527 103f
00000120: 40c4 a63e bb55 8a3d 9661 f63e a3cc 0dbf
00000130: dbea 3abf f52b c6bd fb7a b0be 29af da3e
00000140: 5e60 893c d4df 113d e0bd ca3e c27f fabe
00000150: 70f3 1dbd c0b6 903e 12fb 12be 8894 f1be
00000160: a319 0a3e f021 01bd 8330 c1bc dff9 75be
00000170: 136c 833e 66bf 853d fe1f 663e b405 35be
00000180: 11fb 4a3e 22df 33bd 3c68 fe3d bf3b 6abe
00000190: 60c6 933e bdb2 45be 73d8 b13e f09a 32be
000001a0: f512 033f a160 9cbd 3999 4c3f 6468 d4bd
000001b0: c82d 153f 24bb 19bd 749a c23e 5f41 b4bd
000001c0: 441f d33e a338 7abe 1dd1 533f 6353 2e3d
000001d0: 042a 683f eaea 3bbd 0e9f 633f 2e9d bdbc
000001e0: 1891 463f 4e7e 1cbe b929 523f 0b6d 3cbe
000001f0: 9273 253f 0b6a 46be 7ef4 1d3e 33fe 84be
00000200: c447 5fbf 5eb6 903e 74ab cabe a547 013f
00000210: 5c5e d2bd 5033 9e3e 9a26 b83d fc71 8b3e
00000220: c522 a83d 59b3 dcbe c40f 0b3d 578c 25bf
00000230: da96 dabd 727b 32bf f4e4 4bbe beec 06bf
00000240: 432b f63d 4354 2fbf 3861 033d 44eb 7ebf
00000250: 74b1 8fbe 0d5c 5dbe b2f2 ccbe 7238 4d3e
00000260: 27bf 543e fa41 4abf 33f2 8e3d 8799 05bf
00000270: 121b 08be 5268 42be 9fd8 89be 3b6c 22bc
00000280: 5e72 4f3e ed45 eabe 7a9e 2d3e b394 0bbf
00000290: 8a9b eebd 27eb b0be 92cc 04be 2110 4f3d
000002a0: d65a 193e 8118 8cbe 5e06 683e fe60 4cbe
000002b0: 72f9 003d 1234 b7bd bf30 903e 9bc1 cc3b
000002c0: b591 df3d 2db5 47be 949a 6a3e 5a7e 69bd
000002d0: d73a f43e 24be 503c 9e52 173f 5f0d d1bd
000002e0: f2aa 8f3e ce56 99bd 4a79 623e 6d81 55be
000002f0: 704e e93e 0cb7 f9bd 83b0 333f 116b f1bd
00000300: b2ee 0a3f 4107 abbd 6bf3 003f 6be2 e4bd
00000310: be0d 4a3f 3e57 22be 1471 373f 0708 8bbe
00000320: b75c 1c3f a978 d4bd 6b08 773f dfff 98bc
00000330: 7881 823f aa29 25bd a31f 4d3f 1f57 95be
00000340: 3298 4a3f 47cd 62be bcfa 9b3e edc8 46be
00000350: cee1 a9be 4d90 52bf d8f1 00be 3e22 bbbe
00000360: 9864 78bd 4eb1 84be fa70 4fbe 8e3a 013c
00000370: 6a21 afbd 7111 793e 05f4 3fbd e3e3 5f3e
00000380: 68f8 07bd 9a98 823e 4dcc d0bd 3633 0d3f
00000390: bf82 c7bd f705 e43e 5296 29be 2d49 b43e
000003a0: 31aa d1be 25f1 103f e601 04bf 3886 353f
000003b0: 3883 073e 3b5a 013f 5cfb 72bd 60ec b33e
000003c0: 4835 0fbf b612 043f 7140 5abf 9ff3 5e3f
000003d0: 28d1 283d b768 4e3f 474a 9f3c 71a6 613f
000003e0: ae15 5ebe 833f 4b3f 6cf7 cabe 7fea 743f
000003f0: 00de d23a 744c 023e 4a27 00bf 6ec2 cb3e

sequential/dense_1/MatMul f4 [10, 20]
-0.073195815 0.45867482 0.09750509 0.22920632 0.32281882 0.24098575 0.16203879 -0.11347999
0.36495057 0.13383403 0.46210325 0.828023 -0.11109111 -0.22823924 -0.2737044 0.17008089
0.68323785 0.4325197 0.8025358 0.0066153132 0.17020683 -1.098051 0.5639542 0.4847764
0.46839875 -1.1900682 0.27841923 -0.19630264 0.31467205 0.3614254 0.9201666 0.66636896
0.14509237 0.5808624 0.1625737 -0.55420035 0.04766936 0.39392224 -0.42438796 0.14872499
-0.18368493 -0.15884598 0.41200414 -0.039988942 0.35196826 -0.501719 0.2707275 -0.2127291
0.20361224 0.16291566 0.11365699 -0.5149766 -0.06309602 0.8447863 0.5642905 -0.19410284
0.000990064 0.37593833 0.04537989 -0.41218233 -0.43301526 0.027629321 -0.8113167 0.8487477
-0.8633352 0.19458108 0.82594544 0.05665372 0.6116578 -0.7757986 -0.5465086 0.79495424
1.6581545 -0.7182016 -0.6046637 0.08392779 -0.5739746 -0.6547326 -0.35262617 0.10204283
0.29014918 -0.15786107 0.264621 0.76386076 0.8141332 -0.021344587 0.6469593 0.9504689
0.30082232 0.3907385 0.37052625 -0.07594579 0.17901582 0.5361901 -0.020175075 0.54622316
1.1206561 0.5698538 0.69939315 -0.06265843 -0.24373586 -0.62910557 -1.4727914 0.18576625
-0.59274143 -1.3892995 0.0566586 0.5811913 0.2098022 -1.19802 -0.96945494 0.47116837
-0.40427804 0.109379776 -0.4707939 -0.95062524 0.47534755 -0.8537066 0.6555391 -0.98303324
-0.041955203 1.2030392 -0.9042113 0.40795213 -0.9201681 0.17341246 0.13322458 -0.34369117
-0.33680564 -0.92987835 -0.17728764 0.28306293 0.96622515 0.13974011 -0.06213609 0.045749467
-0.6538972 -0.7270653 -0.63203794 1.6906271 0.260544 0.025144927 0.5357346 0.4458586
0.51696646 -0.07072426 0.5866414 -1.1319547 0.32559887 0.24997665 -0.12564613 0.24764399
0.59827065 -0.16622345 -0.708156 -1.1727957 -0.1197282 0.42950892 -0.7785528 -0.0796451
0.14483908 0.27336124 -0.69419736 -0.19971003 -0.1435728 0.90587026 -0.16319467 1.1274418
-0.7855816 -0.45796496 -0.38090542 -1.0731604 0.19466965 0.04359129 -0.25217372 1.4721484
-0.5584813 -0.17653377 0.9826703 0.36374262 -0.22142005 -0.23572099 0.32335708 0.30156556
0.5310891 -0.060132798 0.16150953 -0.4796525 0.31973928 0.65404725 0.5793074 -0.014251395
1.1584542 0.17672114 0.52079606 -0.11739023 -0.34653217 0.35404 -0.4470727 -0.16542152
00000000: b0e7 95bd 6dd7 ea3e c0b0 c73d 10b5 6a3e
00000010: 8248 a53e f8c4 763e 7fed 253e 3268 e8bd
00000020: cdda ba3e ca0b 093e cc98 ec3e 51f9 533f
00000030: bc83 e3bd 8cb7 69be fc22 8cbe af29 2e3e
00000040: ade8 2e3f 3973 dd3e fc72 4d3f 45c5 d83b
00000050: b34a 2e3e ef8c 8cbf 4d5f 103f 9d34 f83e
00000060: f6d1 ef3e 2854 98bf f78c 8e3e 8f03 49be
00000070: b21c a13e c00c b93e 0a90 6b3f 2897 2a3f
00000080: 1893 143e 66b3 143f b879 263e 13e0 0dbf
00000090: f240 433d 2db0 c93e 6149 d9be 5d4b 183e
000000a0: e717 3cbe 85a8 22be 35f2 d23e 72cb 23bd
000000b0: 2f35 b43e a870 00bf cb9c 8a3e a8d5 59be
000000c0: ba7f 503e 5dd3 263e ffc4 e83d 82d5 03bf
000000d0: 7c38 81bd ea43 583f 5875 103f e5c2 46be
000000e0: 09c5 813a fd7a c03e 43e0 393d 9009 d3be
000000f0: 2db4 ddbe e356 e23c 74b2 4fbf 8747 593f
00000100: 8903 5dbf 4340 473e 2971 533f bb0d 683d
00000110: 9b95 1c3f bd9a 46bf fde7 0bbf 1f82 4b3f
00000120: 683e d43f 0fdc 37bf 3ecb 1abf 55e2 ab3d
00000130: 00f0 12bf 8e9c 27bf 6b8b b4be d5fb d03d
00000140: 6f8e 943e 55a6 21be 677c 873e 618c 433f
00000150: 096b 503f d8da aebc 209f 253f ee51 733f
00000160: 6205 9a3e e00e c83e 9eb5 bd3e 7789 9bbd
00000170: ec4f 373e c143 093f 3346 a5bc 48d5 0b3f
00000180: a971 8f3f f0e1 113f 6e0b 333f 1053 80bd
00000190: e595 79be 100d 21bf 6e84 bcbf 8239 3e3e
000001a0: e7bd 17bf 91d4 b1bf d912 683d f4c8 143f
000001b0: 63d6 563e b858 99bf 332e 78bf fb3c f13e
000001c0: 88fd cebe 8102 e03d e60b f1be 2d5c 73bf
000001d0: c160 f33e 848c 5abf 69d1 273f 11a8 7bbf
000001e0: 38d9 2bbd 30fd 993f 647a 67bf 1adf d03e
000001f0: 2390 6bbf 0993 313e 066c 083e 4af8 afbe
00000200: ca71 acbe 820c 6ebf e48a 35be a0ed 903e
00000210: 885a 773f 0818 0f3e 6a82 7ebd cb63 3b3d
00000220: cf65 27bf f420 3abf 3dcd 21bf 7866 d83f
00000230: 0666 853e bcfc cd3c e725 093f 9447 e43e
00000240: ea57 043f e1d7 90bd 212e 163f e4e3 90bf
00000250: e5b4 a63e e1f9 7f3e 61a9 00be 6396 7d3e
00000260: 4428 193f 7b36 2abe b649 35bf 2b1e 96bf
00000270: 0f34 f5bd 98e8 db3e 3c4f 47bf f81c a3bd
00000280: b250 143e 01f6 8b3e ebb6 31bf c980 4cbe
00000290: c004 13be 1de7 673f 811c 27be 0350 903f
000002a0: e01b 49bf 627a eabe 0906 c3be 525d 89bf
000002b0: 7b57 473e c88c 323d ea1c 81be 5c6f bc3f
000002c0: a1f8 0ebf 45c5 34be 4890 7b3f 793c ba3e
000002d0: f0bb 62be d860 71be 0f8f a53e cd66 9a3e
000002e0: 75f5 073f cf4d 76bd c162 253e 0395 f5be
000002f0: deb4 a33e a46f 273f 7d4d 143f af7e 69bc
00000300: 3a48 943f 63f6 343e e452 053f 4a6a f0bd
00000310: aa6c b1be bb44 b53e b7e6 e4be 4264 29be

sequential/dense_2/MatMul f4 [10, 10]
0.597661 -0.16221142 -0.2776419 0.0552641 -1.1073647 -0.3425122 1.0015749 -0.8434074
-0.2578694 1.5705057 -0.22618221 -0.17961152 0.06924127 0.46867633 0.5417056 0.8931245
-0.43855184 -0.402201 -0.56553274 -0.61819166 -0.018549683 -0.601435 -0.47840005 -2.2246718
-0.3636196 -0.7458131 0.6640891 -0.85795766 0.502474 -0.6802711 0.78168005 -1.1824011
-1.1736159 0.5850935 0.91722304 -0.46393844 -0.78503877 -0.61570984 -0.19828598 -1.2772038
-0.05793518 0.44593835 0.7952429 -0.7737235 0.63273823 -0.33754584 -0.7029558 -0.12233617
-0.8613315 0.64784926 -1.284732 -0.10759835 -0.3698834 0.6134076 0.3927564 -0.39022255
0.57567513 -0.77663654 0.32727385 -1.0906954 -0.28204018 -0.4725279 -0.69401413 0.61718106
-0.21034425 -0.8420973 0.80899745 0.10274922 -0.28229287 -0.9480021 0.51927555 0.49333414
-0.5134458 -0.4342683 0.4162262 -0.9518828 -0.7176245 0.6465474 -0.81569046 0.22262658
-0.65396184 0.46699786 0.4848262 0.41272476 -0.5332655 0.6755338 0.08086802 0.34190086
-0.43404117 0.23674096 -0.3365657 -0.50091773 -0.63673437 -0.8747902 -0.23069721 0.6572093
-0.71666616 -0.5213844 0.77347755 -0.8530306
00000000: 5000 193f c01a 26be 1427 8ebe 9c5c 623d
00000010: 20be 8dbf c25d afbe 9b33 803f 8ce9 57bf
00000020: 7507 84be 5506 c93f 4f9c 67be 15ec 37be
00000030: 5ece 8d3d 58f6 ef3e 38ad 0a3f cfa3 643f
00000040: de89 e0be 4aed cdbe c1c6 10bf cf41 1ebf
00000050: 81f5 97bc a5f7 19bf daf0 f4be 0661 0ec0
00000060: 592c babe 9bed 3ebf be01 2a3f 1da3 5bbf
00000070: 23a2 003f 3f26 2ebf 2f1c 483f eb58 97bf
00000080: 0c39 96bf b0c8 153f 21cf 6a3f 5789 edbe
00000090: 4df8 48bf 299f 1dbf 7b0b 4bbe 6a7b a3bf
000000a0: 704d 6dbd 0852 e43e 0a95 4b3f be12 46bf
000000b0: 22fb 213f cfd2 acbe e9f4 33bf 638b fabd
000000c0: 3980 5cbf 73d9 253f 1972 a4bf 865c dcbd
000000d0: 5b61 bdbe 4808 1d3f 5e17 c93e 40cb c7be
000000e0: 725f 133f a7d1 46bf 7090 a73e e89b 8bbf
000000f0: 9267 90be 2def f1be e9aa 31bf 94ff 1d3f
00000100: 7c64 57be b093 57bf 751a 4f3f 2f6e d23d
00000110: b188 90be 44b0 72bf 3eef 043f 4b96 fc3e
00000120: 2f71 03bf 6a58 debe 9a1b d53e 97ae 73bf
00000130: 3db6 37bf 2184 253f 17d1 50bf 39f8 633e
00000140: 0b6a 27bf 581a ef3e 243b f83e a950 d33e
00000150: 1684 08bf c8ef 2c3f 229e a53d a10d af3e
00000160: a53a debe 396c 723e 5752 acbe 253c 00bf
00000170: 0601 23bf 40f2 5fbf e43b 6cbe de3e 283f
00000180: 6f77 37bf 7379 05bf a002 463f 3760 5abf
